…
bj=1.0, label_smoothing=0.0, nbs=64, hsv_h=0.015, hsv_s=0.7, hsv_v=0.4, degrees=0.0, translate=0.1, scale=0.5, shear=0.0, perspective=0.0, flipud=0.0, fliplr=0.5, bgr=0.0, mosaic=1.0, mixup=0.0, copy_paste=0.0, copy_paste_mode=flip, auto_augment=randaugment, erasing=0.4, crop_fraction=1.0, cfg=None, tracker=botsort.yaml, save_dir=/home/lindevs/dev/workspace/python/ultralytics/runs/detect/train
Overriding model.yaml nc=80 with nc=1

                   from  n    params  module                                       arguments                     
  0                  -1  1      1856  ultralytics.nn.modules.conv.Conv             [3, 64, 3, 2]                 
  1                  -1  1     73984  ultralytics.nn.modules.conv.Conv             [64, 128, 3, 2]               
  2                  -1  1    212864  ultralytics.nn.modules.block.RepNCSPELAN4    [128, 256, 128, 64, 1]        
  3                  -1  1    164352  ultralytics.nn.modules.block.ADown           [256, 256]                    
  4                  -1  1    847616  ultralytics.nn.modules.block.RepNCSPELAN4    [256, 512, 256, 128, 1]       
  5                  -1  1    656384  ultralytics.nn.modules.block.ADown           [512, 512]                    
  6                  -1  1   2857472  ultralytics.nn.modules.block.RepNCSPELAN4    [512, 512, 512, 256, 1]       
  7                  -1  1    656384  ultralytics.nn.modules.block.ADown           [512, 512]                    
  8                  -1  1   2857472  ultralytics.nn.modules.block.RepNCSPELAN4    [512, 512, 512, 256, 1]       
  9                  -1  1    656896  ultralytics.nn.modules.block.SPPELAN         [512, 512, 256]               
 10                  -1  1         0  torch.nn.modules.upsampling.Upsample         [None, 2, 'nearest']          
 11             [-1, 6]  1         0  ultralytics.nn.modules.conv.Concat           [1]                           
 12                  -1  1   3119616  ultralytics.nn.modules.block.RepNCSPELAN4    [1024, 512, 512, 256, 1]      
 13                  -1  1         0  torch.nn.modules.upsampling.Upsample         [None, 2, 'nearest']          
 14             [-1, 4]  1         0  ultralytics.nn.modules.conv.Concat           [1]                           
 15                  -1  1    912640  ultralytics.nn.modules.block.RepNCSPELAN4    [1024, 256, 256, 128, 1]      
 16                  -1  1    164352  ultralytics.nn.modules.block.ADown           [256, 256]                    
 17            [-1, 12]  1         0  ultralytics.nn.modules.conv.Concat           [1]                           
 18                  -1  1   2988544  ultralytics.nn.modules.block.RepNCSPELAN4    [768, 512, 512, 256, 1]       
 19                  -1  1    656384  ultralytics.nn.modules.block.ADown           [512, 512]                    
 20             [-1, 9]  1         0  ultralytics.nn.modules.conv.Concat           [1]                           
 21                  -1  1   3119616  ultralytics.nn.modules.block.RepNCSPELAN4    [1024, 512, 512, 256, 1]      
 22        [15, 18, 21]  1   1411795  ultralytics.nn.modules.head.Detect           [1, [256, 512, 512]]          
YOLOv9c summary: 642 layers, 21,358,227 parameters, 21,358,211 gradients

Transferred 895/973 items from pretrained weights
Freezing layer 'model.22.dfl.conv.weight'
AMP: running Automatic Mixed Precision (AMP) checks with YOLO11n...
AMP: checks passed ✅

train: Scanning /home/lindevs/dev/workspace/python/dataset-utils/datasets/widerface/train.cache... 12880 images, 0 backgrounds, 0 corrupt: 100%|██████████| 12880/12880 [00:00<?, ?it/s]
…
