…
bj=1.0, label_smoothing=0.0, nbs=64, hsv_h=0.015, hsv_s=0.7, hsv_v=0.4, degrees=0.0, translate=0.1, scale=0.5, shear=0.0, perspective=0.0, flipud=0.0, fliplr=0.5, bgr=0.0, mosaic=1.0, mixup=0.0, copy_paste=0.0, copy_paste_mode=flip, auto_augment=randaugment, erasing=0.4, crop_fraction=1.0, cfg=None, tracker=botsort.yaml, save_dir=/home/lindevs/dev/workspace/python/ultralytics/runs/detect/train
Overriding model.yaml nc=80 with nc=1

                   from  n    params  module                                       arguments                     
  0                  -1  1       928  ultralytics.nn.modules.conv.Conv             [3, 32, 3, 2]                 
  1                  -1  1     18560  ultralytics.nn.modules.conv.Conv             [32, 64, 3, 2]                
  2                  -1  1    171648  ultralytics.nn.modules.block.RepNCSPELAN4    [64, 128, 128, 64, 1]         
  3                  -1  1    276960  ultralytics.nn.modules.block.AConv           [128, 240]                    
  4                  -1  1    629520  ultralytics.nn.modules.block.RepNCSPELAN4    [240, 240, 240, 120, 1]       
  5                  -1  1    778320  ultralytics.nn.modules.block.AConv           [240, 360]                    
  6                  -1  1   1414080  ultralytics.nn.modules.block.RepNCSPELAN4    [360, 360, 360, 180, 1]       
  7                  -1  1   1556160  ultralytics.nn.modules.block.AConv           [360, 480]                    
  8                  -1  1   2511840  ultralytics.nn.modules.block.RepNCSPELAN4    [480, 480, 480, 240, 1]       
  9                  -1  1    577440  ultralytics.nn.modules.block.SPPELAN         [480, 480, 240]               
 10                  -1  1         0  torch.nn.modules.upsampling.Upsample         [None, 2, 'nearest']          
 11             [-1, 6]  1         0  ultralytics.nn.modules.conv.Concat           [1]                           
 12                  -1  1   1586880  ultralytics.nn.modules.block.RepNCSPELAN4    [840, 360, 360, 180, 1]       
 13                  -1  1         0  torch.nn.modules.upsampling.Upsample         [None, 2, 'nearest']          
 14             [-1, 4]  1         0  ultralytics.nn.modules.conv.Concat           [1]                           
 15                  -1  1    715920  ultralytics.nn.modules.block.RepNCSPELAN4    [600, 240, 240, 120, 1]       
 16                  -1  1    397808  ultralytics.nn.modules.block.AConv           [240, 184]                    
 17            [-1, 12]  1         0  ultralytics.nn.modules.conv.Concat           [1]                           
 18                  -1  1   1480320  ultralytics.nn.modules.block.RepNCSPELAN4    [544, 360, 360, 180, 1]       
 19                  -1  1    778080  ultralytics.nn.modules.block.AConv           [360, 240]                    
 20             [-1, 9]  1         0  ultralytics.nn.modules.conv.Concat           [1]                           
 21                  -1  1   2627040  ultralytics.nn.modules.block.RepNCSPELAN4    [720, 480, 480, 240, 1]       
 22        [15, 18, 21]  1   1201339  ultralytics.nn.modules.head.Detect           [1, [240, 360, 480]]          
YOLOv9m summary: 627 layers, 16,722,843 parameters, 16,722,827 gradients

Transferred 865/943 items from pretrained weights
Freezing layer 'model.22.dfl.conv.weight'
AMP: running Automatic Mixed Precision (AMP) checks with YOLO11n...
AMP: checks passed ✅

train: Scanning /home/lindevs/dev/workspace/python/dataset-utils/datasets/widerface/train.cache... 12880 images, 0 backgrounds, 0 corrupt: 100%|██████████| 12880/12880 [00:00<?, ?it/s]
…
